…
Namespace(debugging=False, spatial=True, batch_size=128, num_layers=3, hidden_channels=74, nn_width_factor=2, M=3, initial_lr=0.001, report_interval=1, num_epochs=120, patience=14, aggr='s2s', target=[0, 1, 2, 3, 4, 5, 6, 12, 13, 14, 15, 11], predict_all=True, use_branching=False, model_name='nnconv', num_towers=0, pre_trained_path='', data_split=1000, egnn=False, device=device(type='cuda')) 

Created dataset splits with 110831 training, 10000 validation, 10000 test samples.
Input channels: 11, Output channels: 12, 
Edge feature dim: 5, Hidden channels: 74
Running experiment for GNN, training on 110831 samples for 120 epochs.
Training on cuda.

Model architecture:
GNN(
  (first_layer): Linear(in_features=11, out_features=74, bias=True)
  (gru): GRU(74, 74)
  (nl): SiLU()
  (nn): Sequential(
    (0): Linear(in_features=5, out_features=148, bias=True)
    (1): BatchNorm1d(148, eps=1e-05, momentum=0.1, affine=True, track_running_stats=True)
    (2): SiLU()
    (3): Linear(in_features=148, out_features=5476, bias=True)
  )
  (conv): NNConv(74, 74, aggr=mean, nn=Sequential(
    (0): Linear(in_features=5, out_features=148, bias=True)
    (1): BatchNorm1d(148, eps=1e-05, momentum=0.1, affine=True, track_running_stats=True)
    (2): SiLU()
    (3): Linear(in_features=148, out_features=5476, bias=True)
  ))
  (aggr): Set2Set(74, 148)
  (out): Sequential(
    (0): Linear(in_features=148, out_features=74, bias=True)
    (1): BatchNorm1d(74, eps=1e-05, momentum=0.1, affine=True, track_running_stats=True)
    (2): SiLU()
    (3): Linear(in_features=74, out_features=12, bias=True)
  )
)
Total parameters: 935224
Training data being saved to: results/2024-03-13_07-34-43_GNN.pkl
Model being saved to: models/2024-03-13_07-34-43/

Start training:
Epoch: 001, LR: 0.0010000, Loss: 0.1025010, Val Error: 4.3942966, Test Error: 4.3837370
Epoch: 002, LR: 0.0010000, Loss: 0.0453276, Val Error: 3.5226410, Test Error: 3.4881036
Epoch: 003, LR: 0.0010000, Loss: 0.0368346, Val Error: 2.9130656, Test Error: 2.9211708
…
