

PREDICTING TARGET 4 

Namespace(debugging=False, spatial=False, batch_size=128, num_layers=7, hidden_channels=128, nn_width_factor=2, M=3, initial_lr=0.001, report_interval=1, num_epochs=120, patience=14, aggr='s2s', target=4, predict_all=False, use_branching=False, model_name='egnn', num_towers=0, pre_trained_path='', data_split=1000, egnn=True, device=device(type='cuda')) 

Created dataset splits with 110831 training, 10000 validation, 10000 test samples.
Input channels: 11, Output channels: 1, 
Edge feature dim: 4, Hidden channels: 128
EGNN(
  (first_layer): Linear(in_features=11, out_features=128, bias=True)
  (nl): SiLU()
  (predictor1): Sequential(
    (0): Linear(in_features=128, out_features=128, bias=True)
    (1): BatchNorm1d(128, eps=1e-05, momentum=0.1, affine=True, track_running_stats=True)
    (2): SiLU()
    (3): Linear(in_features=128, out_features=128, bias=True)
  )
  (predictor2): Sequential(
    (0): Linear(in_features=128, out_features=128, bias=True)
    (1): BatchNorm1d(128, eps=1e-05, momentum=0.1, affine=True, track_running_stats=True)
    (2): SiLU()
    (3): Linear(in_features=128, out_features=1, bias=True)
  )
  (convs): ModuleList(
    (0-6): 7 x EGNNLayer(128, 128)
  )
)
Running experiment for EGNN, training on 110831 samples for 120 epochs.
Training on cuda.

Model architecture:
EGNN(
  (first_layer): Linear(in_features=11, out_features=128, bias=True)
  (nl): SiLU()
  (predictor1): Sequential(
    (0): Linear(in_features=128, out_features=128, bias=True)
    (1): BatchNorm1d(128, eps=1e-05, momentum=0.1, affine=True, track_running_stats=True)
    (2): SiLU()
    (3): Linear(in_features=128, out_features=128, bias=True)
  )
  (predictor2): Sequential(
    (0): Linear(in_features=128, out_features=128, bias=True)
    (1): BatchNorm1d(128, eps=1e-05, momentum=0.1, affine=True, track_running_stats=True)
    (2): SiLU()
    (3): Linear(in_features=128, out_features=1, bias=True)
  )
  (convs): ModuleList(
    (0-6): 7 x EGNNLayer(128, 128)
  )
)
Total parameters: 754184
Training data being saved to: results/2024-03-13_19-13-53_EGNN.pkl
Model being saved to: models/2024-03-13_19-13-53/

Start training:
Epoch: 001, LR: 0.0010000, Loss: 0.1482909, Val Error: 0.3666813, Test Error: 0.3669696
Epoch: 002, LR: 0.0010000, Loss: 0.0886626, Val Error: 0.3965634, Test Error: 0.3669696
…
