…
Namespace(debugging=False, spatial=False, batch_size=128, num_layers=7, hidden_channels=128, nn_width_factor=2, M=3, initial_lr=0.0001, report_interval=1, num_epochs=39, patience=21, aggr='s2s', target=[0, 1, 2, 3, 4, 5, 6, 12, 13, 14, 15, 11], predict_all=True, use_branching=False, model_name='egnn', num_towers=0, pre_trained_path='models/2024-03-13_07-39-37/EGNN_epoch_67.pt', data_split=1000, egnn=True, device=device(type='cuda')) 

Created dataset splits with 110831 training, 10000 validation, 10000 test samples.
Input channels: 11, Output channels: 12, 
Edge feature dim: 4, Hidden channels: 128
EGNN(
  (first_layer): Linear(in_features=11, out_features=128, bias=True)
  (nl): SiLU()
  (predictor1): Sequential(
    (0): Linear(in_features=128, out_features=128, bias=True)
    (1): BatchNorm1d(128, eps=1e-05, momentum=0.1, affine=True, track_running_stats=True)
    (2): SiLU()
    (3): Linear(in_features=128, out_features=128, bias=True)
  )
  (predictor2): Sequential(
    (0): Linear(in_features=128, out_features=128, bias=True)
    (1): BatchNorm1d(128, eps=1e-05, momentum=0.1, affine=True, track_running_stats=True)
    (2): SiLU()
    (3): Linear(in_features=128, out_features=12, bias=True)
  )
  (convs): ModuleList(
    (0-6): 7 x EGNNLayer(128, 128)
  )
)
Loaded pre-trained model from models/2024-03-13_07-39-37/EGNN_epoch_67.pt
Running experiment for EGNN, training on 110831 samples for 39 epochs.
Training on cuda.

Model architecture:
EGNN(
  (first_layer): Linear(in_features=11, out_features=128, bias=True)
  (nl): SiLU()
  (predictor1): Sequential(
    (0): Linear(in_features=128, out_features=128, bias=True)
    (1): BatchNorm1d(128, eps=1e-05, momentum=0.1, affine=True, track_running_stats=True)
    (2): SiLU()
    (3): Linear(in_features=128, out_features=128, bias=True)
  )
  (predictor2): Sequential(
    (0): Linear(in_features=128, out_features=128, bias=True)
    (1): BatchNorm1d(128, eps=1e-05, momentum=0.1, affine=True, track_running_stats=True)
    (2): SiLU()
    (3): Linear(in_features=128, out_features=12, bias=True)
  )
  (convs): ModuleList(
    (0-6): 7 x EGNNLayer(128, 128)
  )
)
Total parameters: 755603
Training data being saved to: results/2024-03-15_14-16-31_EGNN.pkl
Model being saved to: models/2024-03-15_14-16-31/

Start training:
Epoch: 001, LR: 0.0001000, Loss: 0.0047295, Val Error: 0.6889815, Test Error: 0.6977068
Epoch: 002, LR: 0.0001000, Loss: 0.0045939, Val Error: 0.7181378, Test Error: 0.6977068
…
