…
Namespace(debugging=False, spatial=True, batch_size=128, num_layers=3, hidden_channels=74, nn_width_factor=2, M=3, initial_lr=0.001, report_interval=1, num_epochs=120, patience=18, aggr='s2s', target=6, predict_all=False, use_branching=False, model_name='nnconv', num_towers=0, pre_trained_path='', data_split=1000, egnn=False, device=device(type='cuda')) 

Created dataset splits with 110831 training, 10000 validation, 10000 test samples.
Input channels: 11, Output channels: 1, 
Edge feature dim: 5, Hidden channels: 74
Running experiment for GNN, training on 110831 samples for 120 epochs.
Training on cuda.

Model architecture:
GNN(
  (first_layer): Linear(in_features=11, out_features=74, bias=True)
  (gru): GRU(74, 74)
  (nl): SiLU()
  (nn): Sequential(
    (0): Linear(in_features=5, out_features=148, bias=True)
    (1): BatchNorm1d(148, eps=1e-05, momentum=0.1, affine=True, track_running_stats=True)
    (2): SiLU()
    (3): Linear(in_features=148, out_features=5476, bias=True)
  )
  (conv): NNConv(74, 74, aggr=mean, nn=Sequential(
    (0): Linear(in_features=5, out_features=148, bias=True)
    (1): BatchNorm1d(148, eps=1e-05, momentum=0.1, affine=True, track_running_stats=True)
    (2): SiLU()
    (3): Linear(in_features=148, out_features=5476, bias=True)
  ))
  (aggr): Set2Set(74, 148)
  (out): Sequential(
    (0): Linear(in_features=148, out_features=74, bias=True)
    (1): BatchNorm1d(74, eps=1e-05, momentum=0.1, affine=True, track_running_stats=True)
    (2): SiLU()
    (3): Linear(in_features=74, out_features=1, bias=True)
  )
)
Total parameters: 934399
Training data being saved to: results/2024-03-18_18-12-08_GNN.pkl
Model being saved to: models/2024-03-18_18-12-08/

Start training:
Epoch: 001, LR: 0.0010000, Loss: 0.0205371, Val Error: 0.1737273, Test Error: 0.1736470
Epoch: 002, LR: 0.0010000, Loss: 0.0135297, Val Error: 0.1502494, Test Error: 0.1496376
Epoch: 003, LR: 0.0010000, Loss: 0.0122504, Val Error: 0.1359632, Test Error: 0.1368622
…
