…
Namespace(debugging=False, spatial=True, batch_size=128, num_layers=3, hidden_channels=200, nn_width_factor=2, M=3, initial_lr=0.0005, report_interval=1, num_epochs=102, patience=18, aggr='s2s', target=[0, 1, 2, 3, 4, 5, 6, 12, 13, 14, 15, 11], predict_all=True, use_branching=False, model_name='nnconv', num_towers=8, pre_trained_path='models/2024-03-13_07-39-44/TowerGNN_epoch_4.pt', data_split=1000, egnn=False, device=device(type='cuda')) 

Created dataset splits with 110831 training, 10000 validation, 10000 test samples.
Input channels: 11, Output channels: 12, 
Edge feature dim: 5, Hidden channels: 200
Loaded pre-trained model from models/2024-03-13_07-39-44/TowerGNN_epoch_4.pt
Running experiment for TowerGNN, training on 110831 samples for 102 epochs.
Training on cuda.

Model architecture:
TowerGNN(
  (first_layer): Linear(in_features=11, out_features=200, bias=True)
  (grus): ModuleList(
    (0-7): 8 x GRU(25, 25)
  )
  (nl): SiLU()
  (nns): ModuleList(
    (0-7): 8 x Sequential(
      (0): Linear(in_features=5, out_features=50, bias=True)
      (1): BatchNorm1d(50, eps=1e-05, momentum=0.1, affine=True, track_running_stats=True)
      (2): SiLU()
      (3): Linear(in_features=50, out_features=625, bias=True)
    )
  )
  (towers): ModuleList(
    (0-7): 8 x NNConv(25, 25, aggr=mean, nn=Sequential(
      (0): Linear(in_features=5, out_features=50, bias=True)
      (1): BatchNorm1d(50, eps=1e-05, momentum=0.1, affine=True, track_running_stats=True)
      (2): SiLU()
      (3): Linear(in_features=50, out_features=625, bias=True)
    ))
  )
  (mixing_network): Sequential(
    (0): Linear(in_features=200, out_features=200, bias=True)
    (1): BatchNorm1d(200, eps=1e-05, momentum=0.1, affine=True, track_running_stats=True)
    (2): SiLU()
    (3): Linear(in_features=200, out_features=200, bias=True)
  )
  (aggr): Set2Set(200, 400)
  (out): Sequential(
    (0): Linear(in_features=400, out_features=200, bias=True)
    (1): BatchNorm1d(200, eps=1e-05, momentum=0.1, affine=True, track_running_stats=True)
    (2): SiLU()
    (3): Linear(in_features=200, out_features=12, bias=True)
  )
)
Total parameters: 942412
Training data being saved to: results/2024-03-18_16-12-45_TowerGNN.pkl
Model being saved to: models/2024-03-18_16-12-45/

Start training:
Epoch: 001, LR: 0.0005000, Loss: 0.0299914, Val Error: 1.8279682, Test Error: 1.8340926
Epoch: 002, LR: 0.0005000, Loss: 0.0270550, Val Error: 1.3256638, Test Error: 1.3432131
Epoch: 003, LR: 0.0005000, Loss: 0.0262076, Val Error: 1.5283648, Test Error: 1.3432131
…
