…
Namespace(debugging=False, spatial=True, batch_size=128, num_layers=3, hidden_channels=200, nn_width_factor=2, M=3, initial_lr=0.001, report_interval=1, num_epochs=120, patience=18, aggr='s2s', target=15, predict_all=False, use_branching=False, model_name='nnconv', num_towers=8, pre_trained_path='', data_split=1000, egnn=False, device=device(type='cuda')) 

Created dataset splits with 110831 training, 10000 validation, 10000 test samples.
Input channels: 11, Output channels: 1, 
Edge feature dim: 5, Hidden channels: 200
Running experiment for TowerGNN, training on 110831 samples for 120 epochs.
Training on cuda.

Model architecture:
TowerGNN(
  (first_layer): Linear(in_features=11, out_features=200, bias=True)
  (grus): ModuleList(
    (0-7): 8 x GRU(25, 25)
  )
  (nl): SiLU()
  (nns): ModuleList(
    (0-7): 8 x Sequential(
      (0): Linear(in_features=5, out_features=50, bias=True)
      (1): BatchNorm1d(50, eps=1e-05, momentum=0.1, affine=True, track_running_stats=True)
      (2): SiLU()
      (3): Linear(in_features=50, out_features=625, bias=True)
    )
  )
  (towers): ModuleList(
    (0-7): 8 x NNConv(25, 25, aggr=mean, nn=Sequential(
      (0): Linear(in_features=5, out_features=50, bias=True)
      (1): BatchNorm1d(50, eps=1e-05, momentum=0.1, affine=True, track_running_stats=True)
      (2): SiLU()
      (3): Linear(in_features=50, out_features=625, bias=True)
    ))
  )
  (mixing_network): Sequential(
    (0): Linear(in_features=200, out_features=200, bias=True)
    (1): BatchNorm1d(200, eps=1e-05, momentum=0.1, affine=True, track_running_stats=True)
    (2): SiLU()
    (3): Linear(in_features=200, out_features=200, bias=True)
  )
  (aggr): Set2Set(200, 400)
  (out): Sequential(
    (0): Linear(in_features=400, out_features=200, bias=True)
    (1): BatchNorm1d(200, eps=1e-05, momentum=0.1, affine=True, track_running_stats=True)
    (2): SiLU()
    (3): Linear(in_features=200, out_features=1, bias=True)
  )
)
Total parameters: 940201
Training data being saved to: results/2024-03-18_18-01-06_TowerGNN.pkl
Model being saved to: models/2024-03-18_18-01-06/

Start training:
Epoch: 001, LR: 0.0010000, Loss: 0.0375496, Val Error: 1.4412879, Test Error: 1.4389004
Epoch: 002, LR: 0.0010000, Loss: 0.0209701, Val Error: 1.3044242, Test Error: 1.2995754
Epoch: 003, LR: 0.0010000, Loss: 0.0193391, Val Error: 2.0117175, Test Error: 1.2995754
…
